Model.pt (torch, 6921 bytes, 4 tensors)

layer1.weight f4 [128, 4]
00000000: acc3 063d ca75 0fbe 37bb 2f3e af26 93bd
00000010: d300 80be ee52 f7be 5559 833e 9c55 84be
00000020: bd54 993e 558a 0bbf 5a84 c03c eaba 7cbe
00000030: d6d6 a13e b404 843e b858 91be 6549 6abd
00000040: 8fc5 d8be 7bb1 3abe 42e9 93bd b559 913e
00000050: f17b 943e 7b1f 2a3d d3f7 1fbf 50b7 b93e
00000060: a312 34bd 00c8 ecbd 459a f93e af2f 87be
00000070: 5c99 e2bd 1db9 6f3e d878 30be dd8f de3e
00000080: 4959 973d 0879 7ebe 02cc 7dbd ef51 533e
00000090: 29fc 22bf 2ab5 9a3e 02cf a3be 3531 88be
000000a0: 5c5c 853d 7243 5ebe 0644 bf3e 496d 97be
000000b0: 4085 d5be 53be 693e cda6 b3be 2041 d9bd
000000c0: ff67 6fbe 45f5 3b3e 727b 863e e5ec 09be
000000d0: 4e2c 993d 9463 d3bd 214a 59be a495 b63e
000000e0: 0e97 babe 79ec 95be 63d3 883d 6c99 c4be
000000f0: d7e6 843d 6c60 0a3f bfdd 9b3c f75a f7be
00000100: 1ebd b1be 04ad 953e eaeb bd3e 7b5f 85be
00000110: 485f 51bd c0ee 26be e2c8 083f ee67 d53c
00000120: a4a2 fcbe 42d9 8c3e 5f76 fdbe 21e6 44be
00000130: 9771 aa3e e57a 13bf 5efb 4e3d e273 95be
00000140: c1ab cdbe 2f36 89be 44a3 a8be b5a5 b63e
00000150: 8580 ba3e 9a73 263e 7419 bbbe 60a2 0dbe
00000160: f460 cb3e eb9a dabe 2d5a 8abe 15cd 063f
00000170: d4bd 0b3f 672f 133e b572 4ebe c36a a4be
00000180: 4dac 123f 95f6 85bb 2264 83be ff8f e1be
00000190: 9ac1 d4be 35bf 9ebe 3cce 0c3e 7d03 babd
000001a0: 8cf6 0b3a 5107 f4bd e5c1 263e fe95 d13e
000001b0: 7afe ef3e 20c7 51be ba87 d7be 7536 6c3e
000001c0: 9000 09bd a4eb 6bbe 803a 49bd bc8e 0ebe
000001d0: d8c8 03bf 8051 babe b729 94be 6059 b03e
000001e0: 8b66 d13e 3bb2 0cbf 77c1 5e3e c869 aa3d
000001f0: b9ba 23be 8f71 bdbe 4b77 713e 688c f23e
00000200: 7e89 abbd 7477 3e3e 0e0e ef3e e0d1 debe
00000210: 9268 f43e d611 093e b1bd dfbe 4784 cdbd
00000220: d097 4fbe 20d7 ddbd b409 bdbe ce75 cbbe
00000230: 2b81 dfbd 7f06 cf3d d555 b93e f89e 04bf
00000240: 265d 8ebe b26d f2be 50cb 0bbe 1024 dabe
00000250: f675 103e 1c12 04bf 4ac2 233c 22ea 9abe
00000260: f4d1 1b3e 48f7 42be 3890 2dbe 9d84 22be
00000270: d290 173e 696a 9a3e 09eb dc3d fc76 e43d
00000280: c98f 8fbe 062c d23e f066 8dbe 208b f93d
00000290: 2639 9e3e dbcb b3be e4e0 79be 657b f0bc
000002a0: 7197 d03e efe9 1ebf 8770 9e3d 72ee c93d
000002b0: ed85 933e b71a 213e 074d eabe 6c43 893e
000002c0: 95aa fd3e 1010 89be 3ce4 efbe ea46 b73e
000002d0: 8645 d13c 291b 7cbe ffe7 f4bc 79c9 a23e
000002e0: 6101 033e 8d24 d1bd ddff 91bd ae4c 49be
000002f0: a483 e43e 1f89 9abd e774 77b9 078f a4bd
00000300: e62e edbe 4032 15bc b8a9 68be 6088 54bd
00000310: 8f85 7c3e 223e 26be 7e00 8cbe 4d51 893e
00000320: 48dd abbe a0d5 e93e 30ea d8bd c1f0 883e
00000330: 8d62 ab3e d4cf 9c3e d49c 86bd 10e4 90be
00000340: 2ca0 a5be 170a 90be 2058 d23e c968 00be
00000350: af15 81be ef41 a4be 9dcf 9b3e 552b 6abd
00000360: bca5 133f 840e 39bd 74be 13bf 334e 843d
00000370: bd26 bfbe 6d42 b93d f1dd c5be 0310 81bd
00000380: ae87 abbe 3b97 3bbe eeaf e03e ff6d 553e
00000390: 7113 6bbe e4b6 c4be 6689 973e aadc d43e
000003a0: fb6d e0bd 0892 cabe 4c23 913e 8ea3 d53e
000003b0: 32c2 f13d bff3 68be 1a27 98bd e2ef 863e
000003c0: ac5b 8fbe 5079 393e 3234 dc3e 423c 59be
000003d0: 101f 583e 9592 adbd 2981 41be 1d1e dd3d
000003e0: 1ce8 ad3e 4bce 1fbf 7aad f4ba d731 40bb
000003f0: dc01 49be f8c6 15be 0007 76be cc4e a7be
0.03290145 -0.14009777 0.1716126 -0.07185113 -0.2500063 -0.48305458 0.25654092 -0.25846565
0.29947463 -0.5450795 0.02350061 -0.24680677 0.3160922 0.25784838 -0.28388 -0.0571989
-0.42338225 -0.18231766 -0.07222225 0.28388754 0.2900081 0.04153393 -0.62487525 0.3627267
-0.043963086 -0.115615845 0.4875051 -0.26403567 -0.11064407 0.23410459 -0.17233598 0.43469134
0.07390077 -0.24850857 -0.061962135 0.20636724 -0.63666016 0.30216342 -0.31993872 -0.26600042
0.06511757 -0.21705416 0.37356585 -0.29575565 -0.41703224 0.22826509 -0.35088196 -0.10608125
-0.23379515 0.18355282 0.26266056 -0.13469274 0.074791536 -0.103217274 -0.21219684 0.35661042
-0.3644337 -0.29281977 0.06680944 -0.38398302 0.06489342 0.5405338 0.019026635 -0.48311588
-0.34714597 0.29233563 0.3709405 -0.26049408 -0.051116258 -0.16302013 0.5343152 0.026050534
-0.49342835 0.27509505 -0.49504372 -0.19228412 0.33289787 -0.576094 0.05053269 -0.29189974
-0.401701 -0.2679915 -0.32937062 0.356733 0.36426178 0.16255036 -0.36542857 -0.13831472
0.39722407 -0.42696318 -0.27021924 0.5265668 0.5458653 0.14373551 -0.20160945 -0.32112703
0.5729416 -0.0040882328 -0.25662333 -0.44055173 -0.41553956 -0.31005254 0.13750547 -0.090826966
0.00053391675 -0.11915458 0.16284902 0.40934747 0.46873838 -0.20486116 -0.4209574 0.23067649
-0.033447802 -0.23039109 -0.049128056 -0.13921636 -0.5147834 -0.36390305 -0.28938076 0.34443188
0.40898547 -0.5495946 0.21753488 0.083209574 -0.15989198 -0.370007 0.23580663 0.47372746
-0.08375834 0.18600255 0.4669041 -0.43519497 0.4773603 0.1338571 -0.4369941 -0.100349955
-0.20272756 -0.108320475 -0.36921465 -0.39738315 -0.10913309 0.10108661 0.36198297 -0.5180507
-0.27805442 -0.47349316 -0.13651776 -0.42605639 0.14107499 -0.5159013 0.009995053 -0.30256754
0.1521681 -0.19039643 -0.16949546 -0.158709 0.14801338 0.3015931 0.10787017 0.11155507
-0.28039387 0.41049212 -0.27617598 0.12184739 0.30902976 -0.35116467 -0.24402195 -0.029355714
0.4074054 -0.62075704 0.07736307 0.09859933 0.28813115 0.15732847 -0.45761892 0.2680925
0.49544206 -0.26770067 -0.46853817 0.3579629 0.025545847 -0.24619736 -0.02989578 0.31794336
0.12793495 -0.1021205 -0.0712888 -0.19658157 0.44631684 -0.07545685 -0.00023599305 -0.08035093
-0.46324843 -0.009106219 -0.22720993 -0.05188787 0.24660324 -0.1623464 -0.27344126 0.2681984
-0.33567262 0.45670795 -0.10591543 0.2674618 0.33473626 0.3062731 -0.06572881 -0.28298998
-0.32348764 -0.28132698 0.4108286 -0.12539972 -0.25211856 -0.32081553 0.30431834 -0.05717023
0.57674766 -0.04517986 -0.57712483 0.06460228 -0.37334242 0.09045873 -0.3864589 -0.06301882
-0.33501953 -0.18319409 0.43884224 0.20842741 -0.22956635 -0.38420784 0.29597014 0.41574603
-0.10958477 -0.39564538 0.28347242 0.41726345 0.11804618 -0.22749232 -0.07429333 0.2635489
-0.27999628 0.18112683 0.43008572 -0.21214393 0.211056 -0.08475224 -0.18896927 0.10796759
0.33966148 -0.62424153 -0.0018667423 -0.0029326582 -0.19629616 -0.14626682 -0.24026108 -0.32677305

layer1.bias f4 [128]
00000000: 5008 22bd 6f27 853e f547 17bf 02e9 a7be
00000010: c034 73be 9e2c 84be 4b89 553e 5f05 d9be
00000020: f728 8b3e 1466 fabc 0bc4 9b3d d95d 803e
00000030: 5cb5 90bd 8612 4abe 03b0 5abe 8e43 f7bd
00000040: 800f 58bc a621 413d ec62 153f 21fb 6f3e
00000050: 7c3c 843e 4ef4 d83e 06a2 28be 7d32 8a3e
00000060: 193a 9d3e edea c5be 5127 16bf 4c19 a8bd
00000070: 0cf6 79be 595a b33e 9078 f8be d458 523b
00000080: 0c46 8c3e 0cff 22be ca8c b9be 9ae1 d03e
00000090: d633 babe 060b 8e3c 8985 593e d180 03bf
000000a0: 4c62 1b3e 147f 063f b999 983e 0297 f23d
000000b0: 3ecf d63d 77fc ecbd 06e4 ecbe 2b8e d3be
000000c0: 1214 b7be 5db0 5f3e 1e60 363e 9c6e c8be
000000d0: 732d ec3e 9d82 e43e 55b3 963e f975 c93e
000000e0: 721d fa3d d283 b63d b5aa 743e b88e f53d
000000f0: 2233 67be c905 8c3e a2e8 6d3e aabe f1be
00000100: e798 d9be 04e2 953e 4749 7d3d 4756 293e
00000110: 61c7 d6be fe1a cdbe b2e4 d23d 446e aa3e
00000120: 71e8 9e3e 3d73 303d ac97 86be bf82 8cbe
00000130: f145 d53d 9d38 ff3d b556 103f f47b a8be
00000140: edd5 da3e 5eaa d4be 0758 29be fcb3 d83e
00000150: 9b65 a63e 1f50 873e b459 15be a2db 603e
00000160: 5449 e5bb 9f8f 913e e2de c13e 805c 1c3e
00000170: 339b 17be 4a7a a73e d537 f4bc 25f6 38be
00000180: 8fc7 74be 75e1 72be 2761 8f3e a609 efbe
00000190: e0a6 9f3d a911 cc3d a267 703e 7f86 1fbe
000001a0: da8f 86bd 6882 aebe 4fbf c93e 0ce7 803e
000001b0: 4104 82bc 59f7 623d 9df2 c43c f8e7 db3c
000001c0: 39bf 8a3e d899 fa3e 8d9a 8fbd 30af 42be
000001d0: d3c9 f1bd 41af 7fbd 720b 85be fe94 9fbe
000001e0: 5468 be3e a35a b63e 06e9 3b3e ab8d b63e
000001f0: 6c98 a3bd 9740 333e 9094 58bc 84f7 f23e
-0.03955871 0.26006648 -0.5909417 -0.32794958 -0.23750591 -0.2581529 0.20853154 -0.4238691
0.2717969 -0.030566253 0.076057516 0.250716 -0.070658416 -0.19733629 -0.21356206 -0.12073432
-0.013187289 0.04715123 0.5835407 0.23435642 0.25827396 0.4237389 -0.16468057 0.26991645
0.30708387 -0.38655797 -0.5865374 -0.0820795 -0.24410266 0.35029867 -0.48529482 0.0032096403
0.27397192 -0.15917605 -0.36240226 0.4079712 -0.36367673 0.01733924 0.21242346 -0.51368433
0.15174216 0.52537656 0.2980478 0.11845209 0.10488747 -0.11571591 -0.46267718 -0.41319403
-0.357575 0.21844621 0.17810103 -0.39146888 0.46128425 0.446309 0.29433694 0.39347818
0.122126475 0.089118615 0.23893245 0.11990112 -0.225781 0.27348164 0.23233274 -0.47215778
-0.42499468 0.29274 0.06183746 0.16536818 -0.4194899 -0.40059656 0.102975264 0.3328725
0.31036714 0.04307865 -0.2628759 -0.274435 0.10413731 0.1246197 0.56382304 -0.3290707
0.42741337 -0.4153623 -0.16537486 0.42324817 0.32499394 0.26428315 -0.14585 0.21958783
-0.006997267 0.28429887 0.3786536 0.15269661 -0.14805298 0.32710487 -0.029811779 -0.18062647
-0.2390425 -0.23718818 0.2800381 -0.4668705 0.07795501 0.09964306 0.23477033 -0.1557865
-0.06570406 -0.34083867 0.3940377 0.25176275 -0.015871169 0.05541167 0.024041468 0.02684401
0.27099016 0.48945498 -0.070119 -0.19012141 -0.11806073 -0.062422995 -0.25985295 -0.3116836
0.3718897 0.35616025 0.1835061 0.3565496 -0.079880565 0.17505108 -0.013219014 0.47454464

layer2.weight f4 [4, 128]
00000000: 5b39 743d cce0 2b3e 80c1 0abb 44b2 92bc
00000010: d46e bb3b b23a 06be 61d2 043e f253 ae3c
00000020: 9a28 cdbc 9089 e3bc e885 40bd 6dfe 28be
00000030: 06f3 123e b51f 60bd cebb 493d fd35 b4bd
00000040: a10d ad3d e52e debb 574d 1cbe 50c9 673b
00000050: 7cc4 39be 4c76 f4be 7cd4 b1be cfe8 63be
00000060: e122 10be 1779 7e3d 4041 993b 08d9 02bf
00000070: cf61 38bd 3447 8dbc 583d 753d b725 ae3d
00000080: 1e09 e9bb bf0d 0ebf 29ac 9f3d 67d0 393d
00000090: 6353 8a3d 43af 163c 6ffe c03d 7561 1dbc
000000a0: 1e63 b2bc d325 9ebe eaec 59bd cff3 1ebe
000000b0: 2ede b5be 58fd ff3b 6271 5fbd faaa cbbc
000000c0: c06d 9cbc 6594 6abe 1b4d 1dbd b60f 8ebd
000000d0: 9954 393e a6bc dc3d 2fa0 bcbe dc70 42be
000000e0: 604c 813d 7a61 343e 29d9 003e 8761 98be
000000f0: bfaf c63d e0ee 64bd f584 63bd fa22 303d
00000100: e715 363d 730d e13e 4a00 ecbc 2c4f 39be
00000110: 3f20 513d 6a07 543d c5a4 9c3c 967d 8fbd
00000120: e337 11bd 31fd f23d 3dec 563d 03f0 e43c
00000130: d15b bebe 6c0e ebbe bd4e 50be f0bc 213e
00000140: 698e 2b3e 398b 933d 5a8e 6ebd 887b 343e
00000150: 15cf 6cbd 50fb 56bd 2c4b bd3c b53d e13c
00000160: 80f5 823d a56f 4b3d 2cd4 9bbd d485 773d
00000170: 4bfd 80bd c89c ef3c 1e75 0b3e 910c a43d
00000180: 9a81 83be 6af2 dabd 7a72 923e 9d3a a1bd
00000190: a003 403e f558 803e c3fc 37be e66c dd3d
000001a0: d8f7 e83c 4f77 68bd d10a 513e ff08 64be
000001b0: f0ff 7abe 0bc6 263e 3e17 c9bd 6aed 9e3d
000001c0: 1117 8e3e d696 803e b2bd 69bd 507d 683c
000001d0: 5442 fdbd 4ef4 ed3d 65f9 e53d 0483 19bd
000001e0: e6c0 47bf bdb4 293e 6c75 dfbb 4abb 2e3e
000001f0: 7759 333d 077d d3bb f42b 093d 0794 26bd
00000200: 8d35 1e3d a256 babd a0e4 9c3d 033a 9ebc
00000210: a035 dd3d f947 3cbd 500d 18be 2711 8b3d
00000220: 395a 533e f3ad 87bc 641c 15bd a823 cbbd
00000230: 0db6 26be 226c 293e 0364 993d 8bfb 26bf
00000240: 950d 94be 1cbf aabc df09 1fbe c701 653d
00000250: ba70 0a3e dd88 e2bd bdca a23e bc0f c9bd
00000260: f11f 20be b500 08bc 5744 f73c dd74 1c3e
00000270: b8fa 14bc 3168 583e 3e2a bf3d 3b3d 543e
00000280: bdc1 0bbe 4c2a 21be 966b 593d 34a2 f5bd
00000290: 7a62 91bd edb3 50bd 9263 54be c737 0f3c
000002a0: 0416 7fbd e660 59be ec11 423b a104 8e39
000002b0: e73e 643e 5fcd a63e 44f5 a3bc bdf3 00bd
000002c0: c0b7 bdba 915f 0e3e d7c9 fcbb 214a 35be
000002d0: 69f1 5ebd 623a c83d 41a1 0cbd e773 9d3d
000002e0: 32b4 583e c726 703e 5175 c73d 4bee d13e
000002f0: 577f 06be 84ab 023e 5f1c 5d3d c0d0 c23b
00000300: e24f 4a3d 3f42 b03d 0ac8 26bf 3ca3 2abf
00000310: 9ca6 093d 594c 803d 708c 863d 1593 e73d
00000320: 3877 223e d6de c0bd 6926 cebe 6156 feba
00000330: 27bf e93c 419e 8c3c 420b 21be 01b3 88bd
00000340: 9625 6ebe 451f 7ebd b6b4 9e3d 3269 e2bc
00000350: 441c 123d 9931 373e e15c 25bd 8ce5 bebc
00000360: 3081 583d 153a cfbe bb9d 2cbe 8de8 04be
00000370: ae0e 9bbd a951 663e 4483 69bd 81a8 5d3d
00000380: b65a 62be 84ba 5c3e b6d6 413e 5881 093d
00000390: 03b3 d23d 7fa6 873e ea01 1ebf 6045 c73c
000003a0: c09e 2bbe ed70 b33d 3b82 963e 280c 34bc
000003b0: e4e9 fb3d 8136 18be 18ba 63bb 697a a43d
000003c0: 4817 9b3e 0212 88be ca14 85be 8abb 4e3d
000003d0: 255a 29be ae27 10bd 50c6 a1be 6f80 33be
000003e0: a35e db3d 94c8 3c3c 880f 97bc bc03 81be
000003f0: 74b0 32be f40c acbd 6841 a8bc 3bfc 30be
0.05962501 0.16784972 -0.0021172464 -0.01790727 0.005719999 -0.13108328 0.12970878 0.021280263
-0.025043774 -0.027775556 -0.047002703 -0.16503306 0.14350519 -0.05471774 0.04925137 -0.0879936
0.08449865 -0.0067804926 -0.15263878 0.0035367794 -0.18141359 -0.47746503 -0.34732425 -0.22256778
-0.14075805 0.0621272 0.004676968 -0.51112413 -0.045015153 -0.017245866 0.059872955 0.08503287
-0.0071116826 -0.55489725 0.07796509 0.045364764 0.06754186 0.009197059 0.09423529 -0.009605755
-0.021775778 -0.30888233 -0.053204454 -0.15522693 -0.35521072 0.0078121834 -0.05455149 -0.024861801
-0.019095302 -0.2290817 -0.03840361 -0.069365904 0.18098678 0.10778169 -0.3684096 -0.18988365
0.063133955 0.1761531 0.1258284 -0.29761907 0.0970149 -0.05589187 -0.05554672 0.043002106
0.04445448 0.43955573 -0.028808732 -0.18096608 0.051056143 0.051764883 0.019121537 -0.070063755
-0.03545369 0.11864699 0.052471388 0.027946478 -0.37179425 -0.4590944 -0.20342536 0.1579473
0.16753544 0.07204289 -0.058241226 0.17625248 -0.057814676 -0.052485764 0.023107134 0.027495245
0.06394482 0.04966702 -0.07608828 0.060430363 -0.06298312 0.029249564 0.13618895 0.08010209
-0.25684816 -0.10690768 0.28602964 -0.07872508 0.18751383 0.2506787 -0.17967515 0.10811786
0.028438494 -0.056754407 0.20414282 -0.22269057 -0.24511695 0.16286485 -0.09818886 0.07760127
0.27751973 0.2511508 -0.057065673 0.014190033 -0.12366167 0.11618863 0.11229209 -0.03747846
-0.78028715 0.16572852 -0.0068194177 0.17063633 0.043786492 -0.0064541134 0.033489183 -0.040668514
0.03862529 -0.09098555 0.07660794 -0.019314772 0.10801244 -0.045967076 -0.14848828 0.06790381
0.20639886 -0.016562438 -0.03640403 -0.0991891 -0.16280384 0.16545156 0.07489779 -0.65227574
-0.28916612 -0.020843081 -0.1553111 0.055909898 0.13519564 -0.11061261 0.31795302 -0.09817454
-0.15637185 -0.00830095 0.030183954 0.15278955 -0.009092979 0.21133496 0.09334229 0.20726483
-0.13648124 -0.15738791 0.053081118 -0.119938284 -0.07098861 -0.05095284 -0.20741108 0.008741326
-0.062276855 -0.2122837 0.0029612733 0.000270878 0.2228962 0.3257856 -0.020014413 -0.031482447
-0.0014474317 0.13903643 -0.007714491 -0.17704059 -0.054429445 0.09776761 -0.03433347 0.07688122
0.21162489 0.23452292 0.09739173 0.41002116 -0.13134514 0.1276074 0.053982135 0.005945295
0.04939259 0.086063854 -0.65148985 -0.66655326 0.033606157 0.06264562 0.06569755 0.113073505
0.15865791 -0.094175026 -0.4026368 -0.0019404405 0.028533531 0.017165305 -0.15726951 -0.06674767
-0.23256525 -0.06204154 0.077493116 -0.027638052 0.035671487 0.17890014 -0.04037178 -0.023302816
0.052857578 -0.40474 -0.16857044 -0.12979336 -0.07571159 0.22492088 -0.05700995 0.054115776
-0.22104916 0.21555525 0.18929562 0.033570617 0.1028805 0.26494214 -0.6172167 0.024325073
-0.16759777 0.08761773 0.29396233 -0.010989226 0.123004705 -0.14864542 -0.0034748372 0.080311604
0.302912 -0.2657624 -0.25992423 0.05047182 -0.16538294 -0.03519409 -0.31596613 -0.17529462
0.1071141 0.011522431 -0.018440023 -0.25198162 -0.17450124 -0.08400908 -0.020539 -0.17283718

layer2.bias f4 [4]
00000000: 9f95 66bd 3b1a 90bd 43bd 5d3d 0772 0c3e
-0.056295034 -0.07036253 0.054135572 0.13715373
